Model: "sequential"
_________________________________________________________________
Layer (type)                 Output Shape              Param #   
=================================================================
lstm (LSTM)                  (None, 20, 32)            6656      
_________________________________________________________________
dropout (Dropout)            (None, 20, 32)            0         
_________________________________________________________________
lstm_1 (LSTM)                (None, 20, 32)            8320      
_________________________________________________________________
lstm_2 (LSTM)                (None, 32)                8320      
_________________________________________________________________
dropout_1 (Dropout)          (None, 32)                0         
_________________________________________________________________
dense (Dense)                (None, 3)                 99        
=================================================================
Total params: 23,395
Trainable params: 23,395
Non-trainable params: 0
_________________________________________________________________
model name: apache_error-lstm
Epoch 1/5
 1/87 [..............................] - ETA: 4:07 - loss: 1.1023 - categorical_accuracy: 0.6000
…
83/87 [===========================>..] - ETA: 0s - loss: 0.0249 - categorical_accuracy: 0.559087/87 [==============================] - 1s 13ms/step - loss: 0.0274 - categorical_accuracy: 0.5553 - val_loss: 0.0084 - val_categorical_accuracy: 0.5775
Model: "sequential_1"
_________________________________________________________________
Layer (type)                 Output Shape              Param #   
=================================================================
lstm_3 (LSTM)                (None, 20, 32)            4992      
_________________________________________________________________
dropout_2 (Dropout)          (None, 20, 32)            0         
_________________________________________________________________
lstm_4 (LSTM)                (None, 20, 32)            8320      
_________________________________________________________________
lstm_5 (LSTM)                (None, 32)                8320      
_________________________________________________________________
dropout_3 (Dropout)          (None, 32)                0         
_________________________________________________________________
dense_1 (Dense)              (None, 5)                 165       
=================================================================
Total params: 21,797
Trainable params: 21,797
Non-trainable params: 0
_________________________________________________________________
model name: auth-lstm
Epoch 1/5
  1/643 [..............................] - ETA: 31:15 - loss: 1.5706 - categorical_accuracy: 0.6000
…
/643 [==============================] - ETA: 0s - loss: 0.0071 - categorical_accuracy: 0.8170643/643 [==============================] - 8s 13ms/step - loss: 0.0071 - categorical_accuracy: 0.8170 - val_loss: 0.0139 - val_categorical_accuracy: 0.8221
Model: "sequential_2"
_________________________________________________________________
Layer (type)                 Output Shape              Param #   
=================================================================
lstm_6 (LSTM)                (None, 20, 32)            4736      
_________________________________________________________________
dropout_4 (Dropout)          (None, 20, 32)            0         
_________________________________________________________________
lstm_7 (LSTM)                (None, 20, 32)            8320      
_________________________________________________________________
lstm_8 (LSTM)                (None, 32)                8320      
_________________________________________________________________
dropout_5 (Dropout)          (None, 32)                0         
_________________________________________________________________
dense_2 (Dense)              (None, 12)                396       
=================================================================
Total params: 21,772
Trainable params: 21,772
Non-trainable params: 0
_________________________________________________________________
model name: suricata_fast-lstm
Epoch 1/5
   1/1975 [..............................] - ETA: 1:37:38 - loss: 2.5020 - categorical_accuracy: 0.0000e+00
…
